batch_size_256_buffer_size_10000_gamma_0.95.pt (torch, 15095 bytes, 10 tensors)

fc1.weight f4 [64, 7]
000000 88 e7 ad be 81 82 c3 be 9d c6 d8 3d ff b3 3b bf
       -0.33965707 -0.38185504 0.105847575 -0.7332153
000010 3a b8 96 be 66 0b 14 3e da c2 55 3d 0e 67 e3 be
       -0.2943743 0.14457473 0.052187778 -0.44414562
000020 8d ca 95 3d 35 57 68 3e 51 b0 b2 bf 21 c5 6b bf
       0.07314024 0.22689517 -1.3960057 -0.9209767
000030 6a 37 bb bd 7a 99 05 be d8 7f 11 3f ab 9a 53 3c
       -0.09141429 -0.13046828 0.568357 0.012915294
000040 83 f9 05 be 59 67 a5 be f9 18 91 bf 38 bf 07 bd
       -0.13083462 -0.3230541 -1.1335746 -0.033141345
000050 b1 82 38 3e f7 67 a6 bc f1 ff 6e 3e 82 3e a8 3d
       0.18018605 -0.020313246 0.23339821 0.082150474
000060 1d 9c 49 bf 15 39 1b bf 25 72 85 bc 2b 69 0f be
       -0.78753835 -0.60633975 -0.01628978 -0.14004962
000070 e8 af bb 3e 90 03 56 3e c8 9e 12 3e a8 59 05 3e
       0.36657643 0.20899796 0.14318383 0.13022482
000080 01 9e 02 bf db 17 68 bd b3 85 0e bf be 4e fd 3d
       -0.51022345 -0.056663375 -0.5567276 0.123685345
000090 b8 cd 71 be a2 1e 83 be 06 65 e6 3d 41 3c 23 bf
       -0.23613632 -0.25609308 0.112497374 -0.63763815
0000a0 50 ba ef 3d 2d a8 af 3c e1 c9 bd bb 15 1e 62 be
       0.11705458 0.021442497 -0.005791888 -0.22081788
0000b0 3e d7 44 3e d7 d0 2b bf a6 5b 9e bf bf 6a fe bc
       0.19222733 -0.6711554 -1.2371719 -0.03105676
0000c0 54 da 9f 3d 8e c6 5a be aa 21 34 be a6 a0 1a 3f
       0.07805315 -0.21364805 -0.17590967 0.6040138
0000d0 ae 25 92 bf e0 73 9a bf 4f e3 8b be e1 85 6f b8
       -1.1417749 -1.2066612 -0.2732186 -5.7106725e-05
0000e0 2e 78 aa be 44 f1 4f 3e 59 fb 82 3e 08 7d 63 3f
       -0.33294815 0.2030688 0.25582388 0.8886266
0000f0 cd ad 88 3f f8 2b 4d be 76 54 8f 3e e8 ca fc bd
       1.067804 -0.20036304 0.27994126 -0.12343389
000100 a3 0c 11 3f 67 88 1e be f3 c3 ba bf 61 06 23 bf
       0.5665991 -0.15481721 -1.4591049 -0.6368161
000110 f3 fc 95 bd 4f 6f ff bd 69 ab 5d be b0 61 49 3e
       -0.07323637 -0.12472402 -0.21647419 0.19666171
000120 35 8f c5 bc 4c 5d 1f bf 92 fa a2 3f a6 bf 87 3e
       -0.024116138 -0.62251735 1.2732718 0.26513404
000130 73 72 b2 be 84 45 a1 3e 23 b4 4f be 2e 83 7c 3e
       -0.34852943 0.3149835 -0.2028356 0.24659416
000140 fa 1b 03 bf 4d 32 b0 bf a3 5f 3f be 95 7f 55 be
       -0.51214564 -1.376535 -0.18688826 -0.2084945
000150 0e 96 e5 be 74 39 ad 3e ae c7 a5 3e 50 df b1 3d
       -0.44841045 0.33832896 0.32378906 0.086851716
000160 17 17 b9 3e 1d 2b 81 3d 6c ae 96 3e b1 c4 73 3e
       0.3615043 0.06307051 0.29429948 0.238055
000170 d2 35 89 3e 9b 3d bb be 7b 38 2f 40 d0 05 27 40
       0.26798874 -0.3657044 2.7378223 2.6097298
000180 0d a6 15 be c9 1b 48 3e 5b c7 0a 3f b8 b9 87 be
       -0.14614125 0.19541849 0.5421044 -0.2650888
000190 1e 30 27 3b 44 cf 6e 3d c4 ac 92 bf 2b fd 2c 3b
       0.0025510858 0.058303133 -1.1458974 0.0026396017
0001a0 d0 14 b2 be 20 29 be bd 6e 7e 22 be fa 11 1f be
       -0.34781504 -0.09285188 -0.15868542 -0.15534201
0001b0 6d c3 d5 bf ee 93 db bf e7 d5 40 bb 16 8a a6 3e
       -1.6700264 -1.715452 -0.002942437 0.32527226
0001c0 2e 09 fe 3e d4 7c 7a 3e 7f 0a fd be e2 fe 1d 3f
       0.4961638 0.2446168 -0.4942207 0.61717045
0001d0 85 da 0c bf 53 d0 c3 3d 9d 9a bb be fc 8e de be
       -0.55020934 0.09561219 -0.36641398 -0.43468463
0001e0 40 d8 82 3e 81 f4 c7 3c f3 f3 d0 bf 6b cd b5 bf
       0.2555561 0.02440858 -1.6324447 -1.4203314
0001f0 b1 3d a7 3d fe b1 25 be ae 3e 84 bd 13 d9 ea 3e
       0.081660636 -0.1618118 -0.06457268 0.4586874
000200 69 5f 54 be 80 85 9c bf c7 2d 99 be cf 95 01 3d
       -0.20739521 -1.2228241 -0.29917738 0.03163701
000210 00 49 6e 3d eb f9 f6 be a0 57 b1 bd 39 61 10 3e
       0.058175087 -0.48237547 -0.08659291 0.14099588
000220 3c c0 bf bd e2 8e 83 3f a0 6f 8e 3e c7 fb 67 bd
       -0.09362838 1.0277979 0.27819538 -0.056636598
000230 fb ff 07 be ff 1d ac 3c 07 d1 05 3e 33 06 08 c0
       -0.13281243 0.021010397 0.13068019 -2.1253784
000240 c9 13 c4 bf 01 bc 24 3d 69 bd 70 be 68 d3 05 bf
       -1.5318538 0.040218357 -0.23509754 -0.52275705
000250 28 42 d7 be 10 07 69 3e dc 75 ca 3e 86 9c 79 3f
       -0.4204266 0.227566 0.39543045 0.9750446
000260 67 05 69 3e 37 72 8d 3e b6 6f 0e bf 06 db 9f 3d
       0.22755967 0.27626202 -0.5563921 0.07805447
000270 39 15 89 3e f3 a4 82 bf bd 52 4b be 84 98 1f bd
       0.26774004 -1.0206589 -0.19855781 -0.03896381
000280 fe 3e 5c 3e e8 a8 66 be 97 fd 75 3d 5b 7f 9b 3e
       0.21508405 -0.2252537 0.060056295 0.30370602
000290 08 34 1c bf 8d 0f 64 ba 8d 21 49 be 27 52 8e be
       -0.61016893 -0.0008699827 -0.19641705 -0.27797052
0002a0 73 8d 1a 3e f7 51 e9 3d f2 28 0e be 14 1e 82 bf
       0.15093021 0.11392587 -0.13882807 -1.0165429
0002b0 3f b7 82 bf a1 0d 0f 3e a8 6f 10 bf d5 fa 38 be
       -1.0212172 0.13970043 -0.56420374 -0.18064435
0002c0 32 4f 02 bc 7f 65 92 be 22 62 59 bf 10 a6 2e bf
       -0.007953452 -0.2859306 -0.84915364 -0.6822214
0002d0 ae 76 eb 3d 70 3b 44 3e 79 fd 4e 3e 23 23 c0 be
       0.11497246 0.19163299 0.2021388 -0.37526807
0002e0 e8 c9 aa 3e a3 26 87 bf 6c ba 1d bf 31 ab 3b 3d
       0.33357167 -1.0558666 -0.6161258 0.045817558
0002f0 a4 4f 4e be 3f 55 21 3e d1 53 86 bd 2d 23 99 be
       -0.20147568 0.15755175 -0.065589555 -0.2990965
000300 73 8c 88 40 cf db 94 40 6f fc d2 3d f5 61 8a bd
       4.2671447 4.651832 0.10302054 -0.06756965
000310 4c c0 c4 be ad 4d 49 be ce 3d af 3e cb 95 c4 bf
       -0.3842796 -0.19658537 0.3422684 -1.5358213
000320 1f f0 e4 bf 82 dc df 3d d0 af 21 be f4 51 b2 be
       -1.7885779 0.109307304 -0.15789723 -0.3482815
000330 d9 4c b2 bd 84 f1 34 bc ec 0f 4b bf d2 e6 88 3f
       -0.08706064 -0.01104391 -0.7932117 1.0695441
000340 c3 fd 30 3e 9f 68 95 3e 03 f6 07 bf ac b2 8e 3d
       0.17284302 0.29181382 -0.5310976 0.06967673
000350 18 c5 a2 3e dd d3 d2 bf 17 ac c4 bf 41 48 4c 3e
       0.31790996 -1.6470906 -1.5365018 0.19949438
000360 48 a2 b1 be 9d cd 81 3c a5 64 99 3d 63 ea 85 be
       -0.34694123 0.015845114 0.074898995 -0.26155385
000370 78 c2 f7 3f 2f 51 3b 40 91 03 0e bc a4 79 ab 3e
       1.9356222 2.92683 -0.0086678425 0.33491242
000380 7c 12 75 bd 25 44 c7 3d 61 24 13 be e5 64 8b 3f
       -0.05983208 0.097297944 -0.14369346 1.0890166
000390 ad 96 bf 3f f6 50 02 3e fb 43 6b be 61 b7 c7 3d
       1.4967858 0.12726197 -0.22975151 0.097517736
0003a0 62 84 e3 be dd 68 ae 3e 7e bf 4d bf a9 58 9d bf
       -0.44436938 0.3406438 -0.8037032 -1.2292682
0003b0 ef c7 a1 3b 32 8f 53 be 1e ef 25 bf 81 fa 14 3c
       0.004937164 -0.20660093 -0.6481799 0.009092928
0003c0 a0 ba 06 3d 31 c0 e9 3f 2f 53 fe 3f d0 9a 9b 3d
       0.032892823 1.8261777 1.9869136 0.075978875
0003d0 4b 1f c5 3e ff 7b 83 be 7a d6 55 be ec ce e9 3d
       0.38500437 -0.2568054 -0.20882598 0.1141642
0003e0 9b 62 a4 bf 07 e3 66 be d9 d3 09 3d 2e d9 96 3e
       -1.2842592 -0.22547542 0.0336493 0.2946257
0003f0 0e d8 01 3e c0 d4 0b be 22 cb a7 3e 04 fc 98 3f
       0.12680075 -0.13655376 0.32772166 1.1951909

fc1.bias f4 [64]
000000 24 fd 9f 3e 20 43 9b 3e 5a f9 b5 bf 93 b8 5a 3e
       0.31247818 0.3032465 -1.4216721 0.21359472
000010 e0 86 23 bf c2 d6 cf be 78 9b 95 3e 45 27 83 3f
       -0.6387768 -0.40593535 0.29220176 1.0246359
000020 e0 b6 74 3f 20 4c 7b 3f 62 8b b9 3f 27 95 ac bf
       0.95591545 0.9816303 1.4495661 -1.3483018
000030 e8 6b ae 3f 34 23 c3 bf 01 d7 2b be ce 45 9f 3d
       1.362668 -1.5245118 -0.16781236 0.07776986
000040 75 6e 62 bf 55 aa aa be 13 86 82 3f cd 1e b6 3f
       -0.88449794 -0.33333078 1.0197166 1.422815
000050 05 87 b4 bd 5c 3f 02 bf bd f5 cc 3e cb c5 38 3f
       -0.088148154 -0.5087793 0.40031233 0.7217681
000060 40 12 18 be 78 61 78 3e 8b 21 4c 3f 2e c8 44 bf
       -0.14850712 0.24255931 0.7973868 -0.7686795
000070 e8 28 df be 8c 5a cf 3e 28 81 84 be 30 24 4d bf
       -0.43585896 0.4049877 -0.25879788 -0.8013334
000080 69 00 65 bf aa fc 7e 3e 82 39 48 3f 65 aa 92 3d
       -0.8945375 0.24901071 0.7821275 0.071614064
000090 ec a9 89 be 0b f6 de 3e be da d1 3f 57 df 18 be
       -0.26887453 0.4354709 1.639488 -0.14928947
0000a0 96 c3 35 3c 15 60 aa bf 4d bb 0f be 4c 3b 09 bf
       0.011093995 -1.3310572 -0.14036293 -0.53606105
0000b0 7d d0 64 3d 9a 33 27 3e 3f dd ea 3e 0a 25 e0 3e
       0.055862892 0.16328278 0.45871922 0.4377826
0000c0 ed 92 75 3f 70 45 a2 bc e6 0b a6 bf b8 b7 79 bf
       0.95927316 -0.019808501 -1.2972381 -0.9754596
0000d0 61 86 05 3f 86 b9 8a bf af 32 a8 3c cd 29 6e 3f
       0.5215817 -1.0837867 0.02053198 0.9303253
0000e0 cc b2 09 3e 4d 91 13 3f 0b a7 d1 3d e6 e2 94 3e
       0.13447112 0.57643586 0.10236939 0.2907936
0000f0 cd 9d 90 3d 5d 0b 78 be 1d 80 ed 3e bc 70 19 3f
       0.07061348 -0.24223085 0.46386805 0.59937644

ln1.weight f4 [64]
000000 5e 39 8a 3f 9f ec ea 3f 3b 5f 9f 3f f3 0d af 3e
       1.0798757 1.8353461 1.2450937 0.3419033
000010 b8 fd 26 3f a9 00 1c 3f f1 19 05 3f f8 57 a4 3f
       0.65230894 0.6093851 0.5199271 1.2839346
000020 4d 43 07 3f 0c e6 c6 3e 15 20 28 3f b3 fb 8b 3f
       0.5283707 0.38847387 0.65673953 1.0936188
000030 cb 2a bb 3f d4 08 f7 3f 6a 16 c8 3f 16 69 12 3f
       1.4622434 1.9299569 1.563184 0.571916
000040 3e 1a ac 3f 71 24 8d 3f 62 1a b6 3e 67 52 7d 3f
       1.3445508 1.1026746 0.35567003 0.9895386
000050 2e e8 88 3f d6 23 77 3f 39 ca 93 3f 72 a0 ae 3f
       1.0695856 0.96539056 1.1546088 1.3642714
000060 ca b9 33 3f 81 ba e5 3e 44 9d ef 3e a3 84 ef 3f
       0.70205367 0.44868854 0.46799672 1.8712353
000070 df 24 c2 3f a7 72 19 3f 8c 99 68 3f 18 03 5d 3f
       1.5167502 0.5994057 0.90859294 0.86332846
000080 3b f2 84 3f bd 37 1c 3f a0 22 ee 3f 29 bc df 3e
       1.0386423 0.6102255 1.8604317 0.43698242
000090 08 8f 5a 3f 0e 19 bf 3f ab 76 f8 3e eb 27 db 3e
       0.853745 1.4929521 0.48528036 0.42803892
0000a0 6f a9 0d 3f 3b ac 9d 3f 9d a4 5a 3f 96 d5 18 3f
       0.5533666 1.2318186 0.8540743 0.59700906
0000b0 b6 47 61 3f c7 b7 ac 3f d7 e1 ec 3e a0 1f a7 3f
       0.8800005 1.3493584 0.46266052 1.3056526
0000c0 3a 5e ae 3f 8e 59 ee 3e a0 2f 87 3f a8 c8 d3 3f
       1.3622506 0.465527 1.0561409 1.654561
0000d0 94 cb 10 3f 5b 26 01 3f ab 0d f4 3e 8c 0a cd 3f
       0.56560636 0.5044915 0.47666678 1.6018844
0000e0 bf a2 89 3f 50 81 f6 3e b5 b9 47 3f 8a dd 46 40
       1.0752791 0.48145533 0.7801774 3.1072717
0000f0 07 2a 82 3f f3 89 20 40 a1 a8 a4 3f 95 e0 94 3f
       1.0169076 2.5084198 1.2863961 1.1631037

ln1.bias f4 [64]
000000 5b 85 1e bc cd 83 eb bd 40 f6 53 3d 8c 60 05 bf
       -0.009675349 -0.114997484 0.051748514 -0.52100444
000010 e3 c3 9c be 27 89 d6 be 3e 85 12 bf c3 35 35 be
       -0.306182 -0.41901514 -0.5723456 -0.1769629
000020 2c 47 44 be 22 82 14 bf cc 40 a9 bd 66 66 3f be
       -0.19167775 -0.58011067 -0.08264312 -0.18691406
000030 74 58 1a be 1c 85 2b 3b 98 9d d0 3d 53 6d e1 be
       -0.15072805 0.0026171869 0.101863086 -0.4402872
000040 cb 81 c7 bd c7 85 47 bd f7 dd 2a bf e6 f1 dc bc
       -0.09741553 -0.048711564 -0.6674494 -0.026970815
000050 7f 9a 48 be 00 a0 2b be dd 58 ba bd dd 8c 0d be
       -0.19590186 -0.16760254 -0.090989806 -0.13823266
000060 e1 8d 62 be b6 a5 ed be ef 90 e2 be ae 48 18 be
       -0.22124435 -0.4641549 -0.442512 -0.14871475
000070 2c cd 7f 3c 1d 6c 72 be eb 80 05 bd 72 c5 a6 be
       0.015612882 -0.23674054 -0.03259365 -0.32572514
000080 ae 72 85 be 58 d6 98 be 91 e6 20 be 40 c7 0a bf
       -0.26064056 -0.2985103 -0.15712954 -0.5421028
000090 f4 0c 04 be d2 c8 61 be e0 6d 15 bf c4 7f 13 bf
       -0.12895566 -0.22049263 -0.5837078 -0.5761683
0000a0 00 68 c1 be 43 4a 77 be 15 60 b8 be a6 ca 8a be
       -0.37774658 -0.24149422 -0.36010805 -0.27107733
0000b0 64 82 9b be 1b 88 7b 3d 5d d6 00 bf 02 10 d7 be
       -0.30372918 0.061409097 -0.5032709 -0.420044
0000c0 97 7a db bc 29 0c f6 be cc b5 bf bd f7 85 c5 3e
       -0.026791854 -0.48056152 -0.09360847 0.3857877
0000d0 f9 d8 bd be 04 c4 97 be 11 12 3f be 3c 3d b9 bd
       -0.370796 -0.29641736 -0.18659236 -0.09044883
0000e0 55 81 63 be bb 6b ed be 8e 8d e9 bd c2 cb 03 3e
       -0.22217305 -0.46371254 -0.114039525 0.12870696
0000f0 5c c6 d0 bd e2 0e 82 3b 2a a7 11 be 23 bf 20 be
       -0.10194084 0.0039690593 -0.14223924 -0.15697913

fc2.weight f4 [32, 64]
000000 7a dd 19 3d f7 37 49 3f 90 08 11 be f5 3f e0 3d
       0.037564732 0.7860102 -0.14163423 0.10949699
000010 c7 e5 4e 3d 8f ea 5b bc 23 b1 cf 3d ed e0 4a bf
       0.0505121 -0.013422622 0.10141208 -0.7924946
000020 87 c7 89 3d e0 79 57 3e 2b 3d 1c 3d 0f a3 12 bf
       0.0672751 0.21042585 0.03814427 -0.5728006
000030 c5 a5 30 3e 40 09 a7 3e 19 6e 2c 3e 63 62 48 3c
       0.17250736 0.32624245 0.16838874 0.0122304885
000040 de 48 84 be 95 b8 dd be 43 cc 8e 3d cb ec fa 3c
       -0.25836843 -0.43304887 0.069725536 0.03063049
000050 e4 18 25 3e 68 71 45 bd b5 44 ac be 59 95 56 3e
       0.16122776 -0.048203856 -0.3364617 0.20955409
000060 84 75 8d 3d c2 1f 48 3d 77 ef 82 3e 05 4b 9f 3e
       0.0690718 0.04885841 0.25573322 0.31111923
000070 3c 29 99 3c 22 3f 3f 3d 1a ee 71 bd be 62 33 be
       0.01869642 0.046691068 -0.059064962 -0.17518136
000080 33 bf d1 be b2 fa dc 3e 24 d1 91 bd f9 0a 72 3d
       -0.40966186 0.43160015 -0.071199685 0.059092496
000090 8c 78 b2 bd 8f b8 e7 be 36 21 ec bd 0d f9 84 bc
       -0.08714399 -0.45257995 -0.11529772 -0.016232038
0000a0 ca f7 6b 3d d4 c8 ca 3e 92 c8 ed 3d 73 04 04 be
       0.057609357 0.39606345 0.116105214 -0.12892322
0000b0 a7 a3 84 be 37 2a 16 bf 12 1f 08 3e 59 34 d7 3e
       -0.25906107 -0.58658165 0.13293102 0.42032126
0000c0 29 c6 08 3d 25 7e 1b 3e 97 cb 3a bb a8 23 3e 3e
       0.033392105 0.15184839 -0.0028502697 0.1856829
0000d0 2b 62 8a bd 0d c8 d4 bb 76 86 6d 3c ff aa d3 3d
       -0.06757005 -0.0064935745 0.01449739 0.10335349
0000e0 89 97 c2 3d f3 df 26 3b 61 ac 48 3e 10 24 dd bf
       0.09501559 0.0025463074 0.19597007 -1.727663
0000f0 a3 88 c9 bd 91 5a 54 bf cd 3b 03 be 46 99 93 3d
       -0.098405145 -0.82950693 -0.12815781 0.07206969
000100 2a b8 04 3f f2 bb 55 bf c9 e8 76 3e 4e d6 8b 3e
       0.5184351 -0.83489907 0.24112238 0.2731194
000110 36 55 f3 3d 48 a0 bf 3d 19 8f d0 bc 49 f2 09 bf
       0.11881487 0.09356743 -0.02545886 -0.5388532
000120 69 61 1a 3e 81 d4 aa be 7e 97 04 be ff 1b 6e be
       0.15076222 -0.33365253 -0.12948415 -0.23252867
000130 c4 31 aa be a3 c6 03 3d e1 a9 ea 3e 69 17 ec bd
       -0.33241093 0.032171857 0.45832732 -0.11527903
000140 de 47 b4 3d 60 35 de 3d c1 ee 44 3e af 29 1f bd
       0.0880277 0.10850024 0.19231702 -0.038858112
000150 4e 37 6b 3d 4e 15 14 be 0c 66 75 be eb 3a 4c 3e
       0.05742579 -0.14461252 -0.23964709 0.1994435
000160 99 49 b8 3e 62 e1 c8 3c 52 65 bf bd e6 1f ef be
       0.3599365 0.024521533 -0.09345497 -0.46704024
000170 d5 ee fe 3d df f2 1d be 0a 67 81 3e 20 4e b0 bc
       0.12447897 -0.15424679 0.25273925 -0.021521628
000180 f8 06 6a be c7 ff ab 3d 2e 88 3b bf 39 ca da bd
       -0.22854221 0.08398395 -0.7325467 -0.10683102
000190 95 f5 7a 3e 96 ac 46 3f 8d 0b db be 1f 5b 49 be
       0.24507745 0.77607095 -0.4278225 -0.19663666
0001a0 87 81 d0 ba 68 40 ab bc 16 07 89 bd a4 74 8c 3e
       -0.0015907743 -0.020904735 -0.06690805 0.2743274
0001b0 af ea 55 3f 80 aa ab be 84 29 ba 3d ec 2e b9 be
       0.83561224 -0.3352852 0.0908995 -0.3616861
0001c0 9d e7 ac 3e e9 aa 79 3d 0c 33 9c be 7c 73 ed 3e
       0.33770457 0.06095401 -0.30507696 0.4637717
0001d0 18 dc 40 3d a7 37 c7 3e bb 1b 4d 3e 80 bd 84 be
       0.047084898 0.38909647 0.2003011 -0.25925827
0001e0 f7 0d a9 3e 09 00 57 be 8e 64 81 3e be 6c 50 3e
       0.33018467 -0.20996107 0.2527203 0.20353982
0001f0 d5 5c a2 3e f6 6a fe be f9 9b 6f 3e fb 3c ce 3b
       0.3171145 -0.4969098 0.23399343 0.0062938905
000200 04 fd 91 bd f9 1a a5 3e 35 46 80 be b7 e1 3c bd
       -0.07128337 0.3224714 -0.25053564 -0.046113696
000210 f7 a3 da bd 0d 03 a1 bd 3a 6f 10 3d 99 d7 54 3d
       -0.10675805 -0.0786191 0.035262324 0.051963422
000220 41 68 c2 bd 3a 0e 1c 3e 1a 0e 9b 3e 02 16 60 be
       -0.09492541 0.15239802 0.30284196 -0.21883395
000230 bd 3f 9d 3e 2c fb 03 bf 42 5d c9 bd be c5 3a be
       0.3071269 -0.5155513 -0.09832241 -0.18239495
000240 ce a7 28 3c 2f bd dc 3e f0 40 a9 3d ac 21 93 3e
       0.010293914 0.43113086 0.08264339 0.28736627
000250 6b 29 cc 3e 35 14 f7 3d ab c0 bf 3d 2e 10 3e 3f
       0.3987535 0.12064401 0.093629204 0.7424344
000260 7b f6 14 be e5 f0 3a 3d 98 c2 1f 3d da c2 02 3d
       -0.1454715 0.04563989 0.03900394 0.031924106
000270 6a 20 3d 3f c7 e4 c7 3c 56 a6 ae 3e 96 66 c5 3c
       0.73877585 0.024401082 0.3411128 0.024096768
000280 1a d3 54 3e de f4 ba bd 33 db f7 3d 87 8f de 3c
       0.20783654 -0.09128736 0.12102356 0.027168049
000290 f6 d9 35 3f c5 a3 3f bf d9 9b 06 3e 05 2d 42 3e
       0.71035707 -0.7485927 0.13145389 0.18962486
0002a0 4f c2 f6 bd c8 f6 bf be 0d 00 60 3e 07 a3 80 bd
       -0.1204878 -0.37492967 0.2187502 -0.06281095
0002b0 b5 30 e6 bd be 48 ba be 72 a8 a8 3d 12 44 be 3e
       -0.11239759 -0.36383623 0.082352534 0.3716131
0002c0 58 4f 86 bd 08 1a 43 be 64 eb b1 bd da b0 0c bf
       -0.06558102 -0.19052899 -0.08687475 -0.54957354
0002d0 6e 56 7a be 6d 75 d6 bd 66 f0 0c be b5 e9 cf be
       -0.24447033 -0.10471616 -0.1376358 -0.40607992
0002e0 54 b1 a7 be 4d 9f 9e 3d 56 ed a4 bc 06 f6 12 c0
       -0.32752478 0.07745228 -0.020132702 -2.296266
0002f0 e5 f8 09 3e ca de c8 3e c2 32 6e be 4f f6 00 3f
       0.13473852 0.39232475 -0.2326155 0.5037584
000300 eb 5d ef 3e 95 3c 95 be dd 30 b9 bd ed 81 17 3c
       0.4675134 -0.29147783 -0.09042523 0.009247285
000310 92 9e cb 3c c7 d6 06 bd e3 3e f9 3b a2 d4 f0 3e
       0.024855886 -0.03291967 0.0076063736 0.47037226
000320 97 f2 cc bb 0d 88 09 bf 7a 07 98 3d 07 af 36 3e
       -0.006254505 -0.5372322 0.07423301 0.17840205
000330 f9 ce 8c bd 59 41 ae bf d8 fd b6 3e 67 0d 55 be
       -0.068754144 -1.3613693 0.35740542 -0.20805894
000340 46 bc b6 3d 08 10 96 bd 48 97 d8 be f2 62 5b 3d
       0.08922629 -0.073272765 -0.42302918 0.05356116
000350 ba 17 67 be 18 b2 d3 3d 76 71 2e be 7a 44 8b 3e
       -0.22567645 0.10336703 -0.1703547 0.2720068
000360 ef 40 13 3e c1 68 04 bd 73 de 2e 3d 0b c1 a2 bf
       0.14380239 -0.032326464 0.042692613 -1.2715162
000370 10 9c 06 3c c4 49 39 3d fc 65 0f 3d b1 85 e3 bd
       0.008215919 0.045236364 0.03500937 -0.11109484
000380 09 f6 d0 be f4 19 c2 3d c8 2f bd be d7 df 3f be
       -0.4081271 0.094776064 -0.36950517 -0.18737732
000390 0b 46 1e 3f 16 18 42 3f 63 14 28 be 6b e0 7b 3e
       0.6182563 0.75818 -0.16414027 0.24597327
0003a0 e1 e1 b0 bd f4 f4 c4 3e 1d 7a 2f be fb 14 92 3c
       -0.08636833 0.38468134 -0.17136426 0.01783227
0003b0 19 cb 81 3e 40 ef 01 3c d1 95 a8 bd e3 b7 b3 3d
       0.25350264 0.007930577 -0.082317 0.08775308
0003c0 35 b6 0b 3f 1f 96 66 3e 58 a3 f4 bd 78 c0 94 bd
       0.545749 0.22518204 -0.11945218 -0.07263273
0003d0 44 f9 e1 3d fb 59 d8 bc ef 60 eb 3e f6 54 82 bf
       0.11033872 -0.026410094 0.45972392 -1.0182178
0003e0 d9 2c 25 3e 7b 58 4b be 94 f6 9c 3d 0b 86 4a 3e
       0.1613039 -0.19857971 0.076642185 0.19777696
0003f0 76 29 ba be f3 b2 f5 3e 63 10 74 bf 28 78 ae be
       -0.36359757 0.4798809 -0.95337504 -0.34076047

fc2.bias f4 [32]
000000 99 0f 4f bd b0 bf 05 bd e0 a9 91 bc b1 20 d8 3d
       -0.050551984 -0.03265351 -0.017781198 0.105531104
000010 dc e4 80 3d 1a 33 2c 3e 98 10 3a 3e b1 7d 09 bc
       0.062936515 0.16816369 0.18170393 -0.008391784
000020 c4 b9 00 be 26 83 f6 bd c9 eb 17 3c fe 21 04 3d
       -0.12570864 -0.12036733 0.009272524 0.03225898
000030 7d 17 34 3d 2e fc 0f be ff 47 41 3d 19 88 06 3e
       0.043967713 -0.14061043 0.0471878 0.13137855
000040 93 6a 8d bd b3 fa ab 3d 42 50 63 3e 8a 1c 17 3e
       -0.06905093 0.083974265 0.22198585 0.1475698
000050 31 98 d8 3d dc 14 05 3e 77 a6 6e bc e2 d5 d6 bd
       0.10575903 0.12996238 -0.0145660555 -0.10490014
000060 db 5e d2 3d 2f a1 02 3d 27 b9 07 3e 3e 1d a2 3d
       0.102719985 0.031891998 0.13254224 0.07915734
000070 94 aa 58 bd 86 8b 9b 3c 8b be 08 be e4 ba 89 3d
       -0.05289705 0.018987428 -0.13353936 0.067251

ln2.weight f4 [32]
000000 73 1a a2 3f 16 2f ae 3f 4d 61 b3 3f 46 ee e6 3f
       1.2664322 1.360812 1.4014069 1.8041465
000010 96 ab 87 3f 3d b5 53 3f 08 90 d0 3e 5e 59 48 3f
       1.0599239 0.8269842 0.40734887 0.78261364
000020 12 96 fb 3f 87 41 13 40 32 7c 4f 3f cc 69 69 3e
       1.9655173 2.3008745 0.8104888 0.22794265
000030 a4 a8 a4 3f e9 69 b7 3f 9d c6 c0 3f 52 9a 96 3f
       1.2863965 1.4329196 1.5060612 1.1765845
000040 99 4e 66 3f a7 1f 7b 3f d2 8a 56 3f 5c 5f 81 3f
       0.8996368 0.9809517 0.83805573 1.0107226
000050 af f2 b5 3f ab f7 e7 3e b2 db b9 3f ae 8a 8b 3f
       1.4214686 0.45306143 1.4520171 1.0901697
000060 b2 b7 82 3f b4 10 35 3f af cf 2b 3f 01 f0 e8 3f
       1.0212309 0.7072861 0.67113775 1.8198243
000070 df e0 50 3f c9 62 05 40 74 af b8 3f bc 1d 50 3f
       0.81593126 2.0841544 1.4428544 0.8129537

ln2.bias f4 [32]
000000 2a df 3d 3e 70 49 e9 be 1d 21 97 be 72 9d 64 be
       0.18542162 -0.4556384 -0.2951745 -0.22325686
000010 ba 6f a9 be c3 4e 1b be 71 48 24 bf 10 d5 ea be
       -0.33093053 -0.15166764 -0.64173037 -0.4586568
000020 2a 90 81 bc e3 ef a2 be ba cb a6 be b4 71 33 bf
       -0.015815813 -0.31823644 -0.32577306 -0.7009537
000030 5e 3a fb bd 1b ff 49 bf 27 69 cb be 9c a9 3b 3e
       -0.12266992 -0.78904885 -0.39728662 0.1832642
000040 cc 08 cc bc c4 05 5d be 7b 88 0c bf 23 27 f9 be
       -0.024906538 -0.2158423 -0.5489575 -0.4866267
000050 d6 b3 52 bd 93 79 92 be ce 53 e1 3d 96 51 21 bf
       -0.051441036 -0.2860838 0.110023126 -0.63015115
000060 45 50 f5 bd 5c 89 32 be 2f 5f f3 be 51 a7 11 3d
       -0.11978201 -0.17435211 -0.47533557 0.035559956
000070 be e3 27 be db 9a 5a be e9 71 d5 be 70 38 d1 be
       -0.1639547 -0.21348135 -0.4168847 -0.4086337

fc3.weight f4 [2, 32]
000000 fb 58 b7 3e cb 7e a3 3e dd 43 b1 3e 0f 4b 4e 3e
       0.35810074 0.31932673 0.34622088 0.2014582
000010 7e 60 58 3e 32 96 0f 3f a0 05 fd be 02 d3 27 bc
       0.21130559 0.56088555 -0.49418354 -0.010243179
000020 d7 b7 18 3f 24 45 cf 3e 73 12 ad bd fc 66 eb 3d
       0.5965552 0.40482438 -0.084507845 0.11494252
000030 1f 0b f6 3e 26 a1 10 be c4 5c 02 3e f7 86 14 bf
       0.4805536 -0.14123973 0.127307 -0.5801844
000040 fe 1c 2c 3e e9 d2 25 be aa 52 1c bf a6 7f 86 be
       0.16807935 -0.16193737 -0.61063635 -0.26269263
000050 18 1d 9c 3e b7 f7 74 3d 66 4d 88 3e 1d d2 27 3f
       0.30490947 0.05980655 0.2662155 0.6555498
000060 64 03 07 3f 76 2f d7 bd 26 61 15 bf 59 77 80 bb
       0.5273955 -0.10507099 -0.5835136 -0.0039204773
000070 37 61 3d bf 17 2f 9a 3e b3 6a 80 be 41 5d 0b 3f
       -0.73976463 0.30114052 -0.25081405 0.5443917
000080 2f 67 be 3e 71 3d be 3f 18 c5 fd 3e 47 e9 67 3f
       0.37188098 1.48625 0.49564433 0.9059033
000090 88 15 e3 be a9 d3 c2 3d 41 f6 a4 3b 98 b7 2a 3f
       -0.44352365 0.09513027 0.0050342386 0.6668639
0000a0 bb 29 6b 3f b8 7b ac 3f 02 48 aa 3e 88 3a 92 bc
       0.9186055 1.3475256 0.33258063 -0.017850175
0000b0 cc 28 10 bf 7c 52 50 bf 31 47 3b bf f3 d7 bf be
       -0.5631225 -0.8137586 -0.73155504 -0.37469444
0000c0 81 8c e1 3d c3 c1 e3 3e 75 49 36 3e 1f c2 a0 3f
       0.11013127 0.44483766 0.17801459 1.2559241
0000d0 bb 51 04 bf 81 28 f2 bc 1a 59 07 bf 0a 31 12 3f
       -0.5168721 -0.02956033 -0.52870333 0.5710608
0000e0 23 37 e9 3d 9e c9 6a 3e 18 82 f0 3e 21 73 85 bf
       0.113874696 0.22928473 0.46974254 -1.042576
0000f0 e1 87 89 bd 1c 34 9b 3f 76 12 33 3f ac 47 68 3e
       -0.0671537 1.2125278 0.69950044 0.2268359

fc3.bias f4 [2]
000000 e5 02 6c 3e b1 8e 81 bd
       0.23047979 -0.06326044
